…
==================================================================================================
Total params: 2,411,235
Trainable params: 2,411,235
Non-trainable params: 0
__________________________________________________________________________________________________
---- TARGET DISCRIMINATOR ----
Model: "dis_STIR-5p"
_________________________________________________________________
 Layer (type)                Output Shape              Param #   
=================================================================
 input_3 (InputLayer)        [(None, 560, 560, 1)]     0         
                                                                 
 leaky_re_lu_8 (LeakyReLU)   (None, 560, 560, 1)       0         
                                                                 
 conv2d_8 (Conv2D)           (None, 280, 280, 32)      832       
                                                                 
 leaky_re_lu_9 (LeakyReLU)   (None, 280, 280, 32)      0         
                                                                 
 conv2d_9 (Conv2D)           (None, 140, 140, 64)      51264     
                                                                 
 leaky_re_lu_10 (LeakyReLU)  (None, 140, 140, 64)      0         
                                                                 
 conv2d_10 (Conv2D)          (None, 70, 70, 128)       204928    
                                                                 
 leaky_re_lu_11 (LeakyReLU)  (None, 70, 70, 128)       0         
                                                                 
 conv2d_11 (Conv2D)          (None, 70, 70, 256)       819456    
                                                                 
 leaky_re_lu_12 (LeakyReLU)  (None, 70, 70, 256)       0         
                                                                 
 conv2d_12 (Conv2D)          (None, 35, 35, 1)         6401      
                                                                 
=================================================================
Total params: 1,082,881
Trainable params: 1,082,881
Non-trainable params: 0
_________________________________________________________________
---- SOURCE DISCRIMINATOR ----
Model: "dis_T1-5p"
_________________________________________________________________
 Layer (type)                Output Shape              Param #   
=================================================================
 input_4 (InputLayer)        [(None, 560, 560, 1)]     0         
                                                                 
 leaky_re_lu_13 (LeakyReLU)  (None, 560, 560, 1)       0         
                                                                 
 conv2d_13 (Conv2D)          (None, 280, 280, 32)      832       
                                                                 
 leaky_re_lu_14 (LeakyReLU)  (None, 280, 280, 32)      0         
                                                                 
 conv2d_14 (Conv2D)          (None, 140, 140, 64)      51264     
                                                                 
 leaky_re_lu_15 (LeakyReLU)  (None, 140, 140, 64)      0         
                                                                 
 conv2d_15 (Conv2D)          (None, 70, 70, 128)       204928    
                                                                 
 leaky_re_lu_16 (LeakyReLU)  (None, 70, 70, 128)       0         
                                                                 
 conv2d_16 (Conv2D)          (None, 70, 70, 256)       819456    
                                                                 
 leaky_re_lu_17 (LeakyReLU)  (None, 70, 70, 256)       0         
                                                                 
 conv2d_17 (Conv2D)          (None, 35, 35, 1)         6401      
                                                                 
=================================================================
Total params: 1,082,881
Trainable params: 1,082,881
Non-trainable params: 0
_________________________________________________________________
---- ADVERSARIAL NETWORK ----
Model: "adversarial"
__________________________________________________________________________________________________
…
