…
==================================================================================================
Total params: 869,603
Trainable params: 869,603
Non-trainable params: 0
__________________________________________________________________________________________________
---- TARGET DISCRIMINATOR ----
Model: "dis_STIR-3"
_________________________________________________________________
 Layer (type)                Output Shape              Param #   
=================================================================
 input_3 (InputLayer)        [(None, 400, 400, 1)]     0         
                                                                 
 leaky_re_lu_8 (LeakyReLU)   (None, 400, 400, 1)       0         
                                                                 
 conv2d_8 (Conv2D)           (None, 200, 200, 32)      320       
                                                                 
 leaky_re_lu_9 (LeakyReLU)   (None, 200, 200, 32)      0         
                                                                 
 conv2d_9 (Conv2D)           (None, 100, 100, 64)      18496     
                                                                 
 leaky_re_lu_10 (LeakyReLU)  (None, 100, 100, 64)      0         
                                                                 
 conv2d_10 (Conv2D)          (None, 50, 50, 128)       73856     
                                                                 
 leaky_re_lu_11 (LeakyReLU)  (None, 50, 50, 128)       0         
                                                                 
 conv2d_11 (Conv2D)          (None, 50, 50, 256)       295168    
                                                                 
 flatten (Flatten)           (None, 640000)            0         
                                                                 
 dense (Dense)               (None, 1)                 640001    
                                                                 
 activation_6 (Activation)   (None, 1)                 0         
                                                                 
=================================================================
Total params: 1,027,841
Trainable params: 1,027,841
Non-trainable params: 0
_________________________________________________________________
---- SOURCE DISCRIMINATOR ----
Model: "dis_T1-3"
_________________________________________________________________
 Layer (type)                Output Shape              Param #   
=================================================================
 input_4 (InputLayer)        [(None, 400, 400, 1)]     0         
                                                                 
 leaky_re_lu_12 (LeakyReLU)  (None, 400, 400, 1)       0         
                                                                 
 conv2d_12 (Conv2D)          (None, 200, 200, 32)      320       
                                                                 
 leaky_re_lu_13 (LeakyReLU)  (None, 200, 200, 32)      0         
                                                                 
 conv2d_13 (Conv2D)          (None, 100, 100, 64)      18496     
                                                                 
 leaky_re_lu_14 (LeakyReLU)  (None, 100, 100, 64)      0         
                                                                 
 conv2d_14 (Conv2D)          (None, 50, 50, 128)       73856     
                                                                 
 leaky_re_lu_15 (LeakyReLU)  (None, 50, 50, 128)       0         
                                                                 
 conv2d_15 (Conv2D)          (None, 50, 50, 256)       295168    
                                                                 
 flatten_1 (Flatten)         (None, 640000)            0         
                                                                 
 dense_1 (Dense)             (None, 1)                 640001    
                                                                 
 activation_7 (Activation)   (None, 1)                 0         
                                                                 
=================================================================
Total params: 1,027,841
Trainable params: 1,027,841
Non-trainable params: 0
_________________________________________________________________
---- ADVERSARIAL NETWORK ----
Model: "adversarial"
__________________________________________________________________________________________________
…
